model.pt (torch, 75424 bytes, 43 tensors)

hidden_layers.0.weight f4 [16, 1, 3, 3]
00000000: a298 b4bf 29a8 1ebf acd1 4b3e a1fc 54bf
00000010: e0ba e8bf dd51 6abf 6824 0240 df3d 853f
00000020: 4740 0840 a7c9 da3f f149 9cbd 3835 ad3f
00000030: 70cc f13f e409 eabe d5ab 0cbf 6abf 2240
00000040: 24cd b03f 09e4 433f 4177 b93f f5f7 e5bf
00000050: 21b8 a73f 89e4 c63f 020b 48c0 bf29 8b3e
00000060: 04bc 493f 45c9 99bf 08e4 413f 143a 89be
00000070: e6da 2f3d 0529 873e dfd2 0bc0 b488 c43d
00000080: ab35 0340 ebf7 1c40 b41b 0ebe 8a14 14c0
00000090: 317c 7fbf ca01 04c0 c6b2 7fbf 6df8 25bf
000000a0: d693 0fc0 6731 cebf 2b52 45bf a9e8 07c0
000000b0: 8c82 6abf b5c8 133e c80c 9cbe bf81 45bf
000000c0: 47cf 6b40 e257 6c40 1952 053e f97f db3f
000000d0: 63a0 b03f 37dd ecbe 8e54 483f 084b c2bf
000000e0: c00e 85c0 938c 303f 342d aabd 407d 88bf
000000f0: ead5 89bd 3919 6f3f fadc 5b3f 0845 153f
00000100: 3d7b 1f3f a870 0e3f 3a95 aebf 19ce 2dc0
00000110: d37f e4bf a081 823f 0124 cb3f 238c c33f
00000120: 8449 663e 50f8 1e3f 814e bd3f 57cc 1ebf
00000130: a748 61bf 3e08 5fbe 1133 36c0 0f77 61c0
00000140: f1e5 703f 291a 85bf 0a8a c0bf b8de a33f
00000150: 1000 0cc0 5472 f6bf 56e9 8a3d d39b d73f
00000160: 4347 df3f 25d1 3a3f 9546 0f40 f9a2 2d40
00000170: 603b a83f 6bd0 223f a50a e9be a2e2 2cbf
00000180: e571 d4bf 48e0 c6bf 1a4f bebf 2a59 d0bf
00000190: 4dec aabf 2c6f d4bf 76ee 9e3f 669b 2640
000001a0: d78c ec3f 47cd 03bf 9750 833d a655 1fbf
000001b0: e42e 9dbf 34f4 53bf 37e4 0340 7c7b b3bf
000001c0: edeb 6cbf 62eb 2b40 864b eebe b83e d4be
000001d0: ae1d 053f ebda 4dbf 850a df3f c537 bcbf
000001e0: 5481 843e 4edb 5940 54e8 4ebf 7d9d e2bf
000001f0: b7a3 e7be 4145 d1bd 000d 843f 4f85 423e
00000200: 7131 8f3d 1b57 153f 4a73 3d3d fe11 92bf
00000210: d367 80be fa42 abc0 ff79 07c1 08f8 c4bd
00000220: 0a17 613f cd80 eebf d3c8 99bd 3f5f d03f
00000230: db45 ddbf 91fa ba3f f3ca ca3f cc3d b3bf
-1.410908 -0.6197534 0.19904202 -0.8319798 -1.818203 -0.91531163 2.033472 1.0409507
2.1289232 1.709279 -0.07631291 1.3531866 1.8890514 -0.4571067 -0.54949695 2.542933
1.3812604 0.7651983 1.4489518 -1.7966295 1.3103067 1.5538493 -3.1256719 0.27180287
0.78802514 -1.2014548 0.75738573 -0.26802123 0.042933367 0.26398483 -2.1847456 0.095963866
2.0501506 2.4526317 -0.13877755 -2.3137536 -0.99798876 -2.0626092 -0.9988216 -0.6483219
-2.2433982 -1.6108826 -0.77078503 -2.1235754 -0.9160545 0.14432032 -0.304785 -0.771511
3.6845262 3.692864 0.13019599 1.7148429 1.3798946 -0.46262524 0.7825402 -1.5179148
-4.1580505 0.689645 -0.08309403 -1.0663223 -0.06730254 0.9339786 0.8588406 0.5830846
0.6229742 0.5564065 -1.363929 -2.7157042 -1.7851509 1.0195808 1.5870363 1.5277141
0.22488981 0.62097645 1.4789582 -0.6203055 -0.88001484 -0.21780488 -2.8468668 -3.5228918
0.9410086 -1.0398608 -1.5042126 1.2802343 -2.1875038 -1.925364 0.067827865 1.6844429
1.7443622 0.7297538 2.238683 2.713072 1.314312 0.6359927 -0.45515934 -0.67533314
-1.6597258 -1.5537195 -1.486789 -1.6277211 -1.3353363 -1.6596427 1.2416523 2.6032348
1.8480481 -0.51485103 0.06411856 -0.62240064 -1.2279935 -0.827945 2.0608041 -1.402206
-0.92547494 2.6862416 -0.46541995 -0.414541 0.5199841 -0.8041217 1.7425085 -1.470452
0.2587992 3.4040103 -0.80823255 -1.7704312 -0.45242092 -0.10218287 1.0316467 0.18996166
0.06991852 0.5833604 0.046252526 -1.1411741 -0.25079212 -5.351926 -8.467284 -0.09617621
0.8792578 -1.8633057 -0.07509007 1.6279067 -1.7286943 1.4607717 1.5843185 -1.4003234

hidden_layers.0.bias f4 [16]
00000000: c3da bf3e cad9 90bf f966 d8bf a71b 5640
00000010: c1b5 90bf 34d9 30c0 db42 8e3e e0f6 6bbf
00000020: 779d 923f 5cf7 a33c 9543 a73d 19d4 0f40
00000030: f84e 8abf e8c5 bbbf 1196 9ebf 961b 2e40
0.3747159 -1.1316464 -1.6906425 3.3454378 -1.1305467 -2.763257 0.27785382 -0.92173576
1.1454304 0.020015411 0.08167187 2.2473204 -1.0805349 -1.4669771 -1.2389547 2.7204337

hidden_layers.1.weight f4 [16]
00000000: 5ec6 ae3f 7c7d 9f3f b85e 6740 c3cd 4940
00000010: eba7 2d3f 655c 2b3f 72ee 983f 9e89 4b40
00000020: 279e a03f 4a98 a53f 83c8 853f 25c4 e23f
00000030: e03a fe3f f36f 1e40 6cad c53f fb28 383f
1.3654287 1.246017 3.6151562 3.1531837 0.6783435 0.6693786 1.1947768 3.1802745
1.2548264 1.29371 1.0451816 1.7716109 1.9861717 2.4755828 1.5443549 0.7193753

hidden_layers.1.bias f4 [16]
00000000: 1152 e5bd f85e 44bf 719f 68bd be7e 03bc
00000010: da2b ca3e b069 cf3f 5f41 d4bf 9c78 4d3e
00000020: 0a8d f3bf cc09 a1bf bede 373f 7984 603e
00000030: d878 86bd 86c6 eb3e 4e87 29c0 b2c4 5d3f
-0.111972935 -0.7670741 -0.05679268 -0.008025823 0.3948658 1.6204128 -1.658245 0.2006554
-1.9027417 -1.2581115 0.7182425 0.21925534 -0.06566018 0.460499 -2.6488833 0.8662826

hidden_layers.1.running_mean f4 [16]
00000000: 8c49 793e 0f51 3440 f516 dfbf ce18 5640
00000010: 23ed dcc0 2124 c83f ae89 b3bf 23ff 74bf
00000020: 520c 8ebf 3564 0ebf 2a36 153f 0202 1340
00000030: 02f0 8bbf 7b82 b4bf 1946 ecc0 6f5b 3b40
0.24344462 2.8174474 -1.7428881 3.345264 -6.9039474 1.5636026 -1.4026392 -0.9570181
-1.109751 -0.55621654 0.5828577 2.2969975 -1.093262 -1.410232 -7.383557 2.9274557

hidden_layers.1.running_var f4 [16]
00000000: 8ba9 6d3e 3dcc 5a40 46c1 f53d 127b 593c
00000010: 51c5 de40 300d 8540 a44e 673f fe28 ec3d
00000020: 63de b53f e65f 873e ccf5 0e3f e9c2 293e
00000030: d0a1 893e 1626 ca3d ef4a 1641 a34b 5e3e
0.23209207 3.4187157 0.119997546 0.013273971 6.9615865 4.15786 0.9035437 0.11531256
1.4208492 0.26440352 0.55843806 0.16578259 0.26881266 0.098705456 9.393294 0.2170854

hidden_layers.3.weight f4 [16, 16, 3, 3]
00000000: 7fcc 0fc0 052d 27bf 65fa 93bf 4f73 fe3e
00000010: c0a7 963f 2378 8d3f 8577 f1be 08d7 89bf
00000020: 957a c4bf 3746 19bd 327d c4be e223 dfbf
00000030: f985 863f ed5d 7c3f 44c8 a0be b3bc 663f
00000040: 935c 403f acb3 90be b821 f33e 4c76 013d
00000050: 5fac 783f 1b7e c6bf 719e 19c0 d1fc ac3f
00000060: 7e6b 5dbc cded 453f 029c 203f eeac 753f
00000070: 95ae 83bf 1bfd 39bf 8964 2540 f5bc 02bf
00000080: 93a3 e43f 27e8 d63c f166 23c0 6dca 2ebf
00000090: 4e2c 633f 2d79 1c3f a33c 0b3f 9b2a 083f
000000a0: f711 8f3e 2d5c 3a3c 029a 01bf 3d2b 69bf
000000b0: 480d a6bf 72e3 a93d f2f1 47bf b17d 2ebf
000000c0: c5ab 6e3f eedb 253d 4b38 2cbe 297d 603f
000000d0: f492 c33e e406 693f 5e57 3140 fa86 2040
000000e0: 597e 6d40 8518 1cbf 0775 03bf d49c 613e
000000f0: a6c5 93bf 17aa 9bbe aeab a03d bc7a e73e
00000100: 7ca1 0540 0dcb aabe 40d7 48c0 6c6f a1c0
00000110: a69c 1740 6279 1540 d065 f33f cc54 cfbf
00000120: 54bc 823f 1d66 f5bf 598d 59bf 550a 2040
00000130: 80d8 0b40 2044 0f40 c661 64bf b801 97be
00000140: 7d29 25bf 3562 1340 c83b bc3e 13f5 113d
00000150: d854 ba3f e242 59bf 6dd8 1cbe ddaf e2be
00000160: 46d8 a1bf 1265 8ebf 41d1 1ec0 cca8 cebf
00000170: df25 acbf e34b 003e 7166 0fbf eec4 6fbf
00000180: eb15 c13f bfc1 d03e c4bc b5be 23cb 20be
00000190: 610e abbf 01db 7a3f 648d ff3e 18ad 1dbf
000001a0: d445 b8bf 4040 04bf dbc5 35bf b526 7e3f
000001b0: f33d 32be 590b de3f e444 95bf 8849 aebf
000001c0: 78fd 673f f192 debf 99a3 83bf e3da 913f
000001d0: 53d4 82be ccd0 24bf 77b7 52c0 8693 8ebf
000001e0: 336d 0140 eed3 57bf 5579 a4be 6987 883f
000001f0: ff60 c0bf e7fa 013f 6525 30c0 2b2e adbf
00000200: 5294 77bf 120f 6a40 2b50 6640 e0ad 5840
00000210: ae3a 8cc0 4db1 47c0 9f2e 87c0 51a9 683f
00000220: 3e7c ae3e 6bbf c23f 5aed 133f b2c0 09bf
00000230: 70e2 de3d a611 31bf e213 93be 0df4 0b3e
00000240: 0c24 c1bf 1b62 9ebf ac2c 33c0 9fca 4c3f
00000250: 5587 8a3e 78c5 c5be 8d81 a63f 709b f43d
00000260: ea26 d93e 0254 4cbe ed53 493f 8ee9 2c40
00000270: 5a54 fcbe 9589 37be f429 843f 7926 8bbf
00000280: c5df a3bf a134 56bf b4bd 46bf 8694 2abf
00000290: fbfb 0440 8308 28c0 b630 77c0 9a97 66bd
000002a0: 0dc4 0140 0bf0 093e 24cd 9a3f 8592 353f
000002b0: 698e c93f 5b3c 9e3f 0913 83bf 7e8b 45bf
000002c0: 817c d9bf 681c e03e ba68 bbbe e4f8 d4bc
000002d0: 8457 88be 70b3 16bf 5d30 8ebf 8c19 ec3d
000002e0: 223f 83be a62d 38bf c1ba a13f 9c6e 043f
000002f0: b21d 5b3e 7327 57bf c917 0b3f c1c3 cd3f
00000300: 74c4 b2bf da2c a0be c900 9b3f ad2f 74bf
00000310: c2e5 4bbf ec08 603e c9fc e83f 20f3 de3f
00000320: 5009 09bf 9439 9fbd 0ad3 1a3f 16af 78bf
00000330: b2f0 b6bf 9166 643f 5f2c 06bf 36fa df3f
00000340: 5065 0740 2b05 4340 71ee 17bf 7db3 a8bf
00000350: 9b9f adc0 143e 1cbf 2ab8 6bba f682 47bd
00000360: 99ae b9bf e219 27c0 c47e 7abe 1b39 35bf
00000370: 7204 0dc0 4b7a d0be 9daf 0fbe aa8f d7be
00000380: be72 413f 51f9 1abf d0b5 91bf 05c5 ecbf
00000390: 692a 913f 8ae7 3fbd ac82 833f dcd6 1d3f
000003a0: 64fb cfbf 81b8 dabd 4ef6 93bd 82ec ef3e
000003b0: 87b8 963f 4158 8abf 60b6 7e3d 8f70 543f
000003c0: 9aaa babf 3608 01bf 1f45 c03f 5464 303d
000003d0: 915f 253f 3454 283f 7938 673e 1dc2 a4bd
000003e0: 467d 4f3f d39c 743f 8534 9bc0 fa33 c1c0
000003f0: 2a5d 833f 11c0 18c0 8c7e 303e 6e0a bc3f
-2.2468565 -0.6530307 -1.1560789 0.49697348 1.1769943 1.1052288 -0.471615 -1.0768747
-1.5349909 -0.037420478 -0.38376766 -1.7432826 1.0509635 0.9858082 -0.3140279 0.9013168
0.7514126 -0.2826208 0.47486663 0.031606957 0.9713802 -1.5507234 -2.4002955 1.3514653
-0.013514398 0.7731598 0.6273805 0.95966995 -1.0287653 -0.72651833 2.5842612 -0.51069576
1.7862419 0.026233746 -2.553158 -0.6827763 0.8873948 0.611224 0.543894 0.5319001
0.27943394 0.0113745155 -0.5062562 -0.910816 -1.2972803 0.08295335 -0.78103554 -0.6816054
0.9323085 0.040492944 -0.16818349 0.8769098 0.38198054 0.9102614 2.7709575 2.5082383
3.7108366 -0.60974914 -0.51350445 0.22032481 -1.1544693 -0.30403206 0.07845245 0.45210826
2.0879812 -0.3335804 -3.1381378 -5.0448513 2.368936 2.3355336 1.9015446 -1.6197753
1.0213723 -1.9171788 -0.84981304 2.5006306 2.185089 2.238533 -0.8921169 -0.294935
-0.6451643 2.302869 0.3676436 0.03563411 1.4557142 -0.8486768 -0.15316935 -0.44274798
-1.2644126 -1.1124594 -2.4815218 -1.6145263 -1.3449057 0.12528948 -0.5601569 -0.93659866
1.5084814 0.40772817 -0.3549558 -0.1570249 -1.3363763 0.97990423 0.4991256 -0.61592245
-1.439631 -0.5166054 -0.7100503 0.9927781 -0.17406444 1.7347213 -1.1661649 -1.361619
0.9062114 -1.7388593 -1.0284301 1.1394924 -0.25552616 -0.643811 -3.2924478 -1.113877
2.02229 -0.84307754 -0.3212382 1.0666324 -1.5029601 0.5077347 -2.7522824 -1.3529714
-0.96710694 3.6571698 3.598643 3.3856125 -4.382163 -3.1201966 -4.224441 0.90883356
0.34079164 1.5214666 0.57784045 -0.53809655 0.10883033 -0.69167554 -0.28726107 0.13667317
-1.5089126 -1.237369 -2.7996016 0.79996675 0.27056375 -0.3862722 1.3008286 0.1194371
0.42412502 -0.19953921 0.78643686 2.701755 -0.49283105 -0.17923577 1.0325303 -1.0871116
-1.2802664 -0.83674055 -0.77633214 -0.6663288 2.0778797 -2.6255195 -3.862348 -0.056296922
2.027591 0.13470475 1.2093854 0.70926696 1.5746585 1.2362169 -1.0240184 -0.77165973
-1.699112 0.43771672 -0.36603338 -0.025997587 -0.2662927 -0.5886755 -1.1108509 0.1152831
-0.25634104 -0.71944654 1.2635118 0.51731277 0.21398047 -0.8404457 0.5433317 1.6075364
-1.3966203 -0.3128422 1.2109615 -0.9538525 -0.7964746 0.21878403 1.8202144 1.7417946
-0.53529835 -0.07774654 0.6047827 -0.9714216 -1.4292204 0.89219004 -0.52411455 1.7498233
2.1155586 3.0471904 -0.5934821 -1.3179775 -5.425733 -0.61032224 -0.0008991981 -0.04870888
-1.4506408 -2.6109548 -0.2446242 -0.7079026 -2.2033963 -0.40718302 -0.14031835 -0.42101794
0.7556571 -0.60536677 -1.138361 -1.8497626 1.1341068 -0.046851672 1.0274253 0.61655974
-1.6248593 -0.106797226 -0.07224713 0.4686013 1.1775063 -1.0808183 0.062185645 0.8298425
-1.4583313 -0.50403154 1.5021094 0.04306443 0.6459895 0.65753484 0.22580136 -0.08044837
0.8105053 0.95551795 -4.850161 -6.037595 1.0262806 -2.3867228 0.17235774 1.4690683

hidden_layers.3.bias f4 [16]
00000000: b705 383e ddef 86be 52f0 1c3e 3463 1e3d
00000010: 5efa 42bf 5cb8 36bc 4aa9 1ebe 29e0 8a3e
00000020: 58fe a43e 6c79 56be 672e bc3e ed45 94be
00000030: 9c91 e63e a27f 463d d08f 113e c4fc ecbd
0.1797093 -0.26354876 0.1532605 0.038668826 -0.7616328 -0.011152353 -0.15494266 0.27124146
0.322253 -0.20944756 0.36754152 -0.289596 0.45032966 0.048461564 0.14215016 -0.11571649

hidden_layers.4.weight f4 [16]
00000000: 372b 0e40 34e8 0540 9a25 693f 6136 de3f
00000010: 2c4d f63f 27bc 963f 92b9 2b40 95ae 443f
00000020: f844 f23f af53 4740 f296 a23f d3c0 0240
00000030: da00 1e40 3913 9e3f 09fa 0640 a104 fe3f
2.2213876 2.0922976 0.91073 1.7360345 1.9242301 1.177617 2.6832013 0.7682889
1.8927298 3.1144826 1.2702315 2.043019 2.468802 1.2349616 2.109011 1.9845163

hidden_layers.4.bias f4 [16]
00000000: 167a 3fbf 7f17 37bf 84bb 923e ac01 ffbe
00000010: 8cdf 1dbf ae0e 6c3f fd54 80bf 3ab7 a83f
00000020: 9979 10be dd33 e6bf 1585 21bf 2876 f6be
00000030: a36b c3bf 170e 0cc0 0872 50bf fbd0 a4bf
-0.74795663 -0.7152023 0.28658688 -0.49805963 -0.6166923 0.922099 -1.0025936 1.3180916
-0.14108886 -1.7984577 -0.6309369 -0.4813702 -1.5267223 -2.18836 -0.81424 -1.2876276

hidden_layers.4.running_mean f4 [16]
00000000: 20b3 acc0 17fa 42c1 8f3b b740 1084 f9c0
00000010: 050c bbc1 4ae4 483f 6653 26c1 ad12 6742
00000020: 3e2b 6fc0 8316 05c2 8e98 91c0 c836 72c1
00000030: 1c95 54c1 f2c9 2a42 1446 2bc1 2577 23c1
-5.396866 -12.186057 5.7260203 -7.797371 -23.380869 0.7847334 -10.395361 57.768238
-3.7370143 -33.271984 -4.5498724 -15.138374 -13.286404 42.697212 -10.704609 -10.216588

hidden_layers.4.running_var f4 [16]
00000000: babc 7843 9b6b a143 61b2 2c43 5aca 7143
00000010: 16c5 7743 1151 2243 6fb3 2d44 b1d3 e944
00000020: 26ee ab43 1ab5 a444 0f52 6a43 0881 9943
00000030: ed3e 8043 68e8 8144 bc27 a343 666c 8643
248.73721 322.84067 172.6968 241.79044 247.76987 162.31667 694.80365 1870.6154
343.86053 1317.6594 234.32054 307.00806 256.4916 1039.2627 326.31042 268.84686

hidden_layers.6.weight f4 [16, 16, 3, 3]
00000000: 7a06 f0be 6ca3 bd3f 2ff4 bcbf b062 27c0
00000010: 9a1b 2640 c995 b9bf 2a39 3fbf a872 973f
00000020: 1290 3dbd ab4d 02be c470 a73c 62bb 6b3f
00000030: 1729 3c40 08a4 d93e d24a 2740 4ef7 03bd
00000040: 652f dbbf e830 713f faa6 5e3f effd 38bf
00000050: 7019 533e 5884 fa3e dab6 38bf 69e8 573d
00000060: f450 3bbf e595 bdbf aa86 50c0 6cca 443e
00000070: 959c 903f ae45 853f 73e3 37bf 1523 193f
00000080: d573 633f 2db6 003f 3356 9fbe 13f7 3d3f
00000090: 5d00 97bf e2a6 8f3f 8fae e03e 3fae eebe
000000a0: cbcc 3d40 aea3 373f 5b39 713d 2a87 44be
000000b0: 7fb0 d0bf e2d0 ca3f 82ae edbd 9229 82bf
000000c0: e401 943f 44c9 a5bd 0c7b ed3d fb6f cdbf
000000d0: da38 3cbf fcfb 113f 1fd7 86bf 2f64 e1be
000000e0: 7d5f adbf 4485 053f 06ce cebe 0e7d b53c
000000f0: dd12 873f 0ae7 cd3f 6c67 18bf e06f a93f
00000100: b8de 273f d57e 943e b7a2 f43e cd7b a6be
00000110: 6181 17bd a0f6 61bd 69a1 6dbf 9f00 6cbf
00000120: 76a8 d8be ac40 edbe 0753 0ebf 0ced d03f
00000130: 7525 f73e 0874 0740 598c 983f c333 173e
00000140: 3ca5 fabe 1bb2 633f c983 35c0 68c9 27c0
00000150: b5b8 9c3f 3a75 22be 14d7 8fbd 6f80 07bf
00000160: 0e71 1dbe db9a acbf e0cd d03f b1b5 b43f
00000170: 760e b93f 38d7 aabf 0eba dbbf d6a0 febe
00000180: 3993 073c 511a 263f 9aa8 fabe 6545 36c0
00000190: f5c4 45c0 b730 84bf 9e49 69c0 fdfd f83e
000001a0: 2554 0a3f e8bc 9ebe 940e 0c3f 0628 d73f
000001b0: 18f2 61bf 1dfe b73e cac8 bbbf 727d 063f
000001c0: 9326 b43d 74e3 84bd 9009 2e3f d18f 623f
000001d0: ada7 afbf a916 d33f 0258 a73d 7637 0bc0
000001e0: 804f 45bf 862b adbf 8d16 d7bf 6903 18bf
000001f0: fd84 123f f38a 06c0 5950 d9bf 3de9 69bf
00000200: e8d4 84bf 3cb1 ab3e d0ac 3640 7888 833d
00000210: 43f8 acbf ae34 1240 4eab 01bf bf94 b93d
00000220: 142a fcbf bc83 963f ae3e 38c0 e4db 13c0
00000230: d38c 5840 4c3a ebbf 852a ca3e b73c 1040
00000240: 3d85 39bf de8b e53e 4717 1a3f 5df7 59bf
00000250: 3a99 893f de42 a03f 3073 9abf 67f3 a1be
00000260: c078 b53e 2627 c3bf f2a3 52be a8bd ac3f
00000270: 42a6 9b3f 28c5 813f c595 3abe e61a b93f
00000280: 40a3 f43f 42e8 8e3f 3250 a8bf 1018 923f
00000290: 37a6 13c0 f2f9 2bbe 8804 6d40 2e55 243e
000002a0: de38 d8bf 2515 883f 059e efbf 823f 08bd
000002b0: 8f84 903c ea4b 15c0 3f5b 953e 4d5f eebb
000002c0: 8648 903f b5a1 0840 7657 a7bf 1f2b 9b3f
000002d0: 4344 ab3f bf51 83bf 6621 cbbf f033 de3d
000002e0: 80b2 eb3e 8260 aa3f 4d84 2abf 747a f0be
000002f0: be76 e9be 977f f8be 0f26 083f b85b 42c0
00000300: a4f5 723f 6b8f 1240 15f6 c93f 9151 c0bf
00000310: 323b 8bbe 3de8 9abe 7a3c a03f 4504 5640
00000320: 4c48 c03e 8810 613e b667 22c0 847e b23e
00000330: 2b39 01c0 e0a3 00c0 35b7 a13f 6a48 73bf
00000340: 2f19 a0be c3bb 65bf 14e8 f23e e262 653f
00000350: 1628 7f3f 275b 7fbf f47c 193e 06cc 4c3f
00000360: 0911 b73c 69b0 fcbf 6335 d5bf 9364 27be
00000370: 6fcc 5fbf fc12 80be a8a1 4e3f e24a d6bf
00000380: baad 30bf 3a77 86bf 274e ab3f 6fbb 963f
00000390: e7f7 a3c0 5906 d9bf 526e 84bf 637b 13c0
000003a0: b868 cd3e 8449 87bd 7b9d 4440 3aa5 71bf
000003b0: 42dc b53f 645b ec3f 22db d6bf e000 34c0
000003c0: 1ed3 30bf 49f9 8cbf fbfe 653f 52dd e73e
000003d0: 4b8b 623f dbb9 51be 2cb2 a4c0 f679 f63e
000003e0: 14ff 92c0 e710 813f d167 363f d0e0 f0be
000003f0: 997d 0f3e e3c4 d0be 34f8 b73f 2ec1 f53f
-0.4687994 1.4815497 -1.4762019 -2.6153984 2.5954347 -1.4498836 -0.746966 1.1831865
-0.046279974 -0.1272494 0.020439513 0.920828 2.940008 0.42507958 2.6139417 -0.03221827
-1.7123839 0.9421525 0.86973536 -0.7226247 0.20615172 0.48929095 -0.7215401 0.052711878
-0.731704 -1.4811369 -3.2582192 0.19217843 1.1297785 1.041189 -0.71831435 0.59819156
0.8884862 0.5027798 -0.31120452 0.7420513 -1.1796986 1.1222804 0.43883178 -0.46617314
2.9656246 0.7173413 0.05889259 -0.19192186 -1.6303862 1.5844996 -0.1160555 -1.0168936
1.1563077 -0.08095029 0.11595735 -1.6049799 -0.7352425 0.5702512 -1.05344 -0.44021747
-1.3544766 0.5215647 -0.40391558 0.022154357 1.0552632 1.6086133 -0.5953281 1.3237267
0.65574217 0.29003015 0.47780392 -0.32516328 -0.03698862 -0.05516684 -0.9282442 -0.9218845
-0.42316025 -0.46338403 -0.5559544 1.6322341 0.48270765 2.116457 1.1917831 0.1476584
-0.4895419 0.8894364 -2.8361685 -2.6216679 1.2243868 -0.15865031 -0.07023445 -0.5293035
-0.15375158 -1.3484758 1.6312828 1.4117948 1.4457538 -1.334693 -1.7166154 -0.49732083
0.008274847 0.64883906 -0.48956758 -2.8479855 -3.0901463 -1.0327367 -3.6451182 0.48631278
0.54034644 -0.310035 0.54709744 1.6809089 -0.8826003 0.3593606 -1.4670651 0.52535164
0.0879642 -0.06488696 0.6798334 0.88500696 -1.3723046 1.649129 0.08171083 -2.17526
-0.7707443 -1.3528907 -1.6803757 -0.59380203 0.57234174 -2.1022308 -1.6977645 -0.9137152
-1.0377474 0.33533657 2.8542976 0.06422514 -1.3513263 2.2844653 -0.50652015 0.09061574
-1.9700341 1.1758952 -2.8788257 -2.310296 3.3835952 -1.8377166 0.39485565 2.2537057
-0.7246893 0.44833273 0.6019177 -0.8514307 1.0749886 1.2520406 -1.2066402 -0.31631014
0.35443687 -1.5246322 -0.20570353 1.3495378 1.2160113 1.0138292 -0.18221195 1.4461334
1.911232 1.116463 -1.3149474 1.1413593 -2.30702 -0.16794565 3.7034016 0.16048118
-1.6892354 1.0631453 -1.8720099 -0.03326369 0.017641334 -2.3327584 0.29171178 -0.0072745443
1.1272132 2.1348698 -1.3073566 1.2122535 1.3380207 -1.0259322 -1.5869567 0.1084975
0.46034622 1.3310702 -0.66608125 -0.46968424 -0.45598406 -0.48534843 0.5318307 -3.036848
0.9490607 2.2900035 1.5778223 -1.5024892 -0.271936 -0.3025531 1.2518456 3.3440106
0.37555158 0.21978962 -2.53758 0.3486215 -2.0191143 -2.0100021 1.2634035 -0.9503237
-0.31269214 -0.89739627 0.47442687 0.8960401 0.9967054 -0.9974846 0.14989072 0.79998815
0.02234699 -1.9741336 -1.6656917 -0.1634696 -0.87421316 -0.25014484 0.8071542 -1.6741602
-0.69015086 -1.0505135 1.3383225 1.177595 -5.1240115 -1.6955062 -1.0346167 -2.304406
0.40118957 -0.06605819 3.0721118 -0.9439274 1.4207842 1.846539 -1.6785624 -2.8125534
-0.6907214 -1.1013576 0.89842194 0.45286041 0.88493794 -0.20481054 -5.1467495 0.48139924
-4.5936375 1.0083283 0.7125216 -0.47046518 0.14012755 -0.40775213 1.437262 1.9199579

hidden_layers.6.bias f4 [16]
00000000: 92e4 67bd 59e9 2c3e c230 313e a493 64bc
00000010: 7b87 99bd 3e5e 4ebe a872 973e e343 2f3e
00000020: 53dd 8abe 6423 b1be 5b4d 37be a63f 02bd
00000030: 6340 d23d 309b 9e3d c5ac 1fbe 9050 7ebd
-0.056614466 0.1688589 0.17303756 -0.013951216 -0.07496544 -0.20153138 0.29579663 0.1711574
-0.27121982 -0.34597313 -0.17900603 -0.03179898 0.10266187 0.077444434 -0.1559325 -0.06208855

hidden_layers.7.weight f4 [16]
00000000: 5de8 583f 2306 8f3f 111d 563f 7946 923f
00000010: fe0e f43f 6e10 0e40 f8f2 253f 163b 2840
00000020: 5bb8 473f e9ba d83f daec ba3f 1316 0040
00000030: 7661 da3f 621a 3340 95da 5d40 6b60 403f
0.8472956 1.1173748 0.836381 1.1427757 1.9067075 2.2197528 0.64823866 2.6286063
0.7801568 1.693204 1.4603531 2.0013473 1.7060993 2.7984853 3.4664662 0.7514712

hidden_layers.7.bias f4 [16]
00000000: 7672 14bd 8767 87bd a474 f23f f5ba 5b3e
00000010: 12ac abbf 70fb debf 657a 673f 53fc dcbf
00000020: 897b 3abe 38b9 8bbf 5c21 aebf 4bc6 b4bf
00000030: d901 9cbf 61bd edbf 1630 22c0 3fef 02bf
-0.03624197 -0.06611543 1.8941846 0.21458037 -1.3411887 -1.7420483 0.90421134 -1.7264503
-0.18211187 -1.0915899 -1.360393 -1.4123014 -1.2188064 -1.8573419 -2.534185 -0.5114631

hidden_layers.7.running_mean f4 [16]
00000000: 33b4 32bf f248 5cc0 15b0 5642 a5a6 b83f
00000010: 32d2 0ac1 c75a 45c1 ddc1 f440 7814 37c1
00000020: 59dd 7ec1 39b1 18c1 4811 1cc1 9f4d 17c1
00000030: 0983 cec0 3feb 65c1 7610 9fc1 faa6 0ec1
-0.6980621 -3.4419522 53.671955 1.4425856 -8.676317 -12.334662 7.648665 -11.442497
-15.92904 -9.543267 -9.754219 -9.45645 -6.4534955 -14.369933 -19.883038 -8.915766

hidden_layers.7.running_var f4 [16]
00000000: 6461 e242 1825 0f43 acb8 7844 9796 eb42
00000010: f39d 0743 71c0 3843 e5f6 0d43 7494 8443
00000020: 3dad 3343 438c 0943 8237 0743 fd19 7a43
00000030: 4ea6 ab42 828c 9043 ffbf a943 bd9e 2543
113.190216 143.1449 994.8855 117.79412 135.61699 184.75172 141.96443 265.1598
179.67671 137.5479 135.21683 250.10152 85.824814 289.09772 339.49997 165.62007

hidden_layers.9.weight f4 [16, 16, 3, 3]
00000000: d619 e6bd 03b2 9a3e 21c5 7bbf 661d 82bf
00000010: 38a9 4b3f ae17 20bf 315f fa3f fc44 a93e
00000020: 6b8c 11c0 03b1 41bf 8a47 4e3f 0de0 f8bf
00000030: f081 b4bf 38ae b9bf f4c1 a73f 747c 97bf
00000040: 469b d9bd 7e7e 80bf 2ec7 94be 1751 6bbe
00000050: 7b00 89bf 316a d1be 5a68 ae3e 30b3 b33e
00000060: bfdd 87bf fc46 89bf 7d5e 5b3f 76af 893f
00000070: 2448 c03f fb95 35bf 7e42 933f 4878 0f3f
00000080: f1a0 d6be b25a dcbf e3ae 593f cba3 ad3d
00000090: 29b8 febf 88c5 573f 5c0d 10be d85c 9abf
000000a0: f0d7 593f 12aa fc3e 9754 4bc0 8d6e 93be
000000b0: 1303 d03f 79d5 a73f 0b4c 50bf 9709 b53f
000000c0: 2396 d23e 6dc0 17bf 1c07 813e 3a5a e93f
000000d0: 7e11 0140 7114 6e40 f9d7 1c40 1d7b 663f
000000e0: f9f4 ac3c 65b6 663f 48e8 10bf dd16 0ebf
000000f0: 6099 4540 d15f 2abf 2c7b 04c0 cdea 55be
00000100: 480b e43e 3dcb 0ebe d00f cfbe 2c11 433f
00000110: 1e99 ae3e 6002 5bc0 97f9 f5be 7c9f a63f
00000120: 43fe 4f3e d90d bcbf b9d5 283f b173 2c3f
00000130: 7e8b 2cbf 9886 40be 8de1 1a3f e67e 2bbf
00000140: b1ef c9be 0697 853f a9ff 69bf e9c5 5f3f
00000150: 7c6d f83f 74d2 86bf fbbb 6abe c72f ba3f
00000160: 090e 3abe 5ab1 a2bf 7e49 5dc0 6d3e 22bf
00000170: c8e5 e0be 9cd1 983f 4a27 d33f 0864 d6bf
00000180: 91a6 35c0 c432 153e fb89 bfbe 7371 65bf
00000190: f07a 033f 5e73 0740 2b1c 813f f31d 0c3f
000001a0: e723 803f 4af3 1e40 b798 5dbf f641 d9bf
000001b0: edd2 2b3e a7d6 2940 506c c63f 7976 993e
000001c0: 952b 5a3e 2e7b 29bf 733b 9a3e 7a03 bdbf
000001d0: 7c3d 20c0 2f0c 8f3e ff12 c23f 3f92 8dbe
000001e0: 6869 00c0 ee31 9fbe 4d65 9d3e 6b27 5d3f
000001f0: 4879 823f 29b4 dabf 0650 79bf 567b a2bd
00000200: 5d84 1440 4864 61bf 909b 8c3d b0c0 92bf
00000210: fc41 a0be 0be9 2740 ebcb a73f 301e b9be
00000220: 7321 29c0 aa70 86bf 1ccf 113f 31d1 f03c
00000230: 13e6 cc3f cc1f dd3c da21 cabf 7f52 f3be
00000240: 571d 813e a3a9 213f 8681 4a3f 0e5d bc3f
00000250: 9288 d53f bb60 303f 0cf8 803f c1c1 5c3d
00000260: 5ffa 2fbf 81ac 0f3e 082d 51bf 6306 b93e
00000270: 3179 e5bf 89be 11c0 112c 9abf d372 aebf
00000280: e65b 4fbe 249e 123f cf4b 79c0 5053 36c0
00000290: 1252 67bf 86d8 8bc0 0e23 3bc0 396f d8be
000002a0: 5cd6 84c0 be64 1cc0 f92c 333e fd53 6abf
000002b0: c0cd afbe c55f 71bf f82c 5f3e 8a60 bebf
000002c0: 0929 08bf 168d b7bf f247 a8bf 2ec6 4ebe
000002d0: 5582 80bf d9e0 4dbf 7470 01c0 ef33 c43e
000002e0: eae0 923f 7575 883d 9269 03bd b812 25be
000002f0: 046e 46be fd9d c6bf 93f4 84bf 0535 5e3f
00000300: 3d0c d6bc cc3f 18bf 19df b83f 44bf abbe
00000310: 108d 7cbe 652f 3b40 544e 133e 23cf 343f
00000320: 5b45 2b3e baf8 fdbf b71a 7cbf e445 25c0
00000330: 589b 8cbf f4a1 893f d7a1 32bf 7497 8b3f
00000340: 508f 2d3d 2e43 2fbf 4727 9f3e 0de4 12be
00000350: d49b 1a3e 703a 413f 9ad1 6d3f 4874 f53f
00000360: 37ea 8dbe 0f05 963e d43a 6b3f ee77 663f
00000370: 638c 8b3f 9836 c03f 6d02 883f fa67 a13f
00000380: b8a1 9c3f e610 35bf 1540 2c3f 47b9 5d3e
00000390: 318f cb3f 932d f13f 6c4a 923f 8da7 1140
000003a0: 68b8 0840 f9df 343f 83df d9bf 1715 0040
000003b0: 51af 403f 4d21 cbbe 79fe 1c40 02a7 833f
000003c0: ea91 0ec0 ff53 583f b140 7ebb e702 75bd
000003d0: eac0 d53d 6007 0e3f 4ac6 9b3e 4a27 8ebd
000003e0: 29f9 c83e 5cd0 013f 17fa f0be 87ae 2fbf
000003f0: 5354 9c3e aaf1 b3bf 42c6 8bbe 7563 f03d
-0.112353966 0.30213937 -0.9834767 -1.0165222 0.7955508 -0.6253613 1.95603 0.33060443
-2.2741954 -0.75660723 0.8057791 -1.9443375 -1.4102154 -1.4506292 1.3106065 -1.1834855
-0.10625319 -1.0038602 -0.29058212 -0.22980152 -1.0703272 -0.4090133 0.3406399 0.35097647
-1.0614547 -1.0724788 0.8569105 1.0756671 1.5022016 -0.7093198 1.1504667 0.5604291
-0.41919664 -1.7215178 0.8503248 0.08478507 -1.9899951 0.84285784 -0.14067596 -1.2059584
0.8509512 0.49348503 -3.177038 -0.2879528 1.6250938 1.3112022 -0.8136603 1.4143552
0.4113017 -0.59277993 0.25200737 1.823066 2.0166926 3.7199976 2.450682 0.90031606
0.021112906 0.9012206 -0.56604433 -0.55503637 3.0874863 -0.66552454 -2.0700178 -0.2089035
0.44539857 -0.13944717 -0.4044175 0.7619808 0.34101194 -3.42202 -0.48041984 1.3017421
0.20311837 -1.4691726 0.65951115 0.6736403 -0.6740035 -0.18801343 0.60500413 -0.66990507
-0.39440683 1.0436714 -0.9140573 0.8741136 1.9408412 -1.0532975 -0.22923271 1.454583
-0.18169416 -1.2710373 -3.4576106 -0.63376504 -0.4392531 1.1938968 1.6496365 -1.6749277
-2.8382914 0.14570147 -0.37409958 -0.89626235 0.5135946 2.1164165 1.0086721 0.547332
1.0010957 2.4835992 -0.8656115 -1.6973255 0.1677968 2.6537263 1.5501804 0.299732
0.21305688 -0.6620358 0.3012348 -1.4766686 -2.5037527 0.27938983 1.5162047 -0.2765064
-2.0064335 -0.3109278 0.3074135 0.8638827 1.0193262 -1.708623 -0.9738773 -0.07933681
2.3205788 -0.8804364 0.06865609 -1.1465054 -0.31300342 2.6235988 1.3109106 -0.36155844
-2.6426666 -1.0503132 0.5695665 0.029396625 1.6007713 0.026992701 -1.5791581 -0.47523877
0.25217697 0.6314947 0.7910389 1.4715898 1.6682303 0.688976 1.0075698 0.053895716
-0.6874141 0.14030649 -0.8170934 0.36137685 -1.792761 -2.2772543 -1.2044698 -1.3628792
-0.202499 0.57272553 -3.895252 -2.848835 -0.90359604 -4.370181 -2.9240146 -0.42272356
-4.151167 -2.4436488 0.17497624 -0.91534406 -0.34336662 -0.9428676 0.21794498 -1.4873211
-0.53187615 -1.4339931 -1.3146956 -0.20192787 -1.0039774 -0.80421215 -2.0224886 0.38320872
1.1474888 0.06663028 -0.0320831 -0.16120422 -0.19377905 -1.5516964 -1.0387138 0.8679965
-0.026128883 -0.59472346 1.4443084 -0.33544362 -0.24663186 2.9247677 0.14385349 0.70628566
0.16725676 -1.984153 -0.98478264 -2.5823908 -1.0984907 1.0752549 -0.697782 1.0905595
0.042373 -0.68461883 0.31084654 -0.14344807 0.15098506 0.75479794 0.9289795 1.9176111
-0.27717754 0.29300734 0.9188664 0.9002675 1.0902218 1.5016661 1.062574 1.2609856
1.2236853 -0.7072891 0.6728528 0.21652709 1.5903074 1.8842033 1.1428962 2.2758515
2.1362553 0.70654255 -1.7021335 2.0012872 0.7526751 -0.39673844 2.4530318 1.0285342
-2.227656 0.8450317 -0.0038795883 -0.05981722 0.10437186 0.55480003 0.3042472 -0.069410875
0.39252594 0.50708556 -0.47065803 -0.6862568 0.30533084 -1.4058125 -0.27299696 0.1173772

hidden_layers.9.bias f4 [16]
00000000: 3d90 c6bc 99f3 08be 8410 6c3c 2924 c43c
00000010: b430 8ebd d1b6 043e ceee 5ebf 540d 0fbf
00000020: 755b c2bd 2e98 93be 3648 4bbc 7750 0e3e
00000030: 2ca7 50be 4fa9 893e 75bf 39bb 4e58 90bd
-0.0242387 -0.13374175 0.0144082345 0.023943024 -0.06942883 0.12960364 -0.8708314 -0.5587971
-0.094901 -0.2882704 -0.012407353 0.13897882 -0.20376271 0.26886985 -0.0028342877 -0.07048093

hidden_layers.10.weight f4 [16]
00000000: 43b2 dc3f c709 e63f 6e7d eb3f 5c7c 923f
00000010: 4d6e ef3f 947b f83f 8caf 863f ad26 0a40
00000020: 6a4d 893f 73f9 0440 309f b93f ae03 ad3f
00000030: f932 e73f 3702 0a40 1648 c83f c525 8d3f
1.7241901 1.7971734 1.8397653 1.1444201 1.8705536 1.9412713 1.0522323 2.1586106
1.072675 2.0777252 1.4501705 1.3516748 1.8062431 2.1563852 1.5646999 1.1027151

hidden_layers.10.bias f4 [16]
00000000: 0127 d0bf 58cc 7b40 0cde 39bf 95ee 863e
00000010: e08b a83e 5466 aabf 1946 6bc0 8d8c a0bf
00000020: 19eb 783e a5f5 afbf 5318 043e 1bcc 31bf
00000030: cdf4 90be d9a7 0c3e 2376 fbbe e82a 6f3f
-1.6261903 3.9343472 -0.7260444 0.263539 0.32919216 -1.3312478 -3.6761534 -1.2542893
0.24308433 -1.374684 0.12899904 -0.69452065 -0.28311768 0.13735904 -0.4911357 0.93424845

hidden_layers.10.running_mean f4 [16]
00000000: f25d 28c0 a3eb 33c2 857f 85c0 1cb6 4042
00000010: 7a4a 0cc0 55da 18c0 60c4 4041 2620 00c0
00000020: 3258 c840 a1c3 2bc0 0313 82c0 9c22 26c0
00000030: d3a3 53c0 652e 9dc0 7603 ccc1 3500 9a3f
-2.630734 -44.980114 -4.1718163 48.17784 -2.1920457 -2.388326 12.047943 -2.0019622
6.260766 -2.6838152 -4.064821 -2.5958624 -3.306874 -4.9119134 -25.50169 1.2031313

hidden_layers.10.running_var f4 [16]
00000000: b118 2642 acda 1544 33be 9c42 d5d1 f843
00000010: 1a05 8342 d047 8f42 6dbe 9542 0cf2 5942
00000020: eef1 3542 3818 7042 3880 5d42 fd89 5e42
00000030: 3b47 6242 0b90 b942 6e52 4743 9aba 7142
41.524113 599.41675 78.37148 497.6393 65.509964 71.64026 74.871925 54.486374
45.48626 60.02365 55.375214 55.634754 56.56956 92.781334 199.32199 60.432228

hidden_layers.12.weight f4 [16, 16, 3, 3]
00000000: eb26 3e40 7b1b f8be 9c42 f13f 2a16 97be
00000010: d458 a1bf c9b4 7cbf ac92 a1be dc67 7e3e
00000020: 9963 273f 54f2 d8bf 8a15 1dc0 0819 f3bf
00000030: ec5a a6bf fde6 d3bf 5b54 debf ef52 903f
00000040: 8012 353f 8b00 b83e e72c bf3e 5e9f b53e
00000050: 9a57 0c3f 40c8 03c0 6262 04c0 df5e aabf
00000060: 3252 c8be ce3e 193f 97ac 953f f212 fcbe
00000070: 445d 5c3f 1565 8b3e 7827 14be 720c 0740
00000080: e8ef ff3f cdaf 003d feba e03f 2053 bc3f
00000090: ad02 1a3f 00b3 2f3f a463 843e a56b 833f
000000a0: f0a6 903f 1db7 983f 4d6d 30bf 3b2c 8f3c
000000b0: aa43 3cbf d638 cac0 d1b6 83c0 05dd a0c0
000000c0: f8c2 c4be 3d9c 313f 89a2 a9bf e7b4 2f3f
000000d0: 61ef 1f3f b792 83be a2eb 443f e2da ad3f
000000e0: e839 a13f 05d8 b93f ab78 0c40 3deb 0d40
000000f0: 8b53 a83f bd98 1640 6e52 2540 84eb f3bf
00000100: c64c 96bf 04ce 46c0 f1b4 233f 8b62 bbbf
00000110: 4e24 153e 85f1 093d 9148 0cbe 6e34 1340
00000120: 56d7 13c0 2548 c6bf e771 61bf f6ad 02c0
00000130: ac3e 65bf 96ec 21bf 2ea2 05c0 3e79 9bbf
00000140: 4303 abbf d373 a53f 474c 01bd edd7 0dbf
00000150: 60c8 74be 0de5 503d 3719 1bbe f84d 92bf
00000160: c2b8 433f 8bf8 67bf ae3a 8ebe f0c1 3ebb
00000170: bf97 2cbe 1c39 91bf c44f 63bf a235 45be
00000180: 9f04 52bf 86e2 6ebe 59f8 59bd b6eb 30bf
00000190: 8d62 12bf bd8e e9bf cff4 023f 4338 2a3f
000001a0: cbd2 b3be 350e 133f c690 a43d e82b 05be
000001b0: 0d51 d5be d817 0cbf c325 87bf bdb7 0c3d
000001c0: 3ac7 2bbf 0953 7ebf 0aea 1ebf 61f1 53bf
000001d0: 77e0 c7bd 1f05 913e 042c 953e f665 28be
000001e0: 7305 25be dea4 9b3e c4d3 cd3d 0244 8b3f
000001f0: 61a6 d83f 5320 973c 457c ae3f 9aaf 823e
00000200: 1665 c13e 6089 2e3f d5a8 dfbc b0e4 c5bc
00000210: 511c a33f da84 fe3e 393b 323f bf21 fd3f
00000220: 55e6 c03f 4601 20bf b351 b63f f291 b43f
00000230: 4a83 5b3d df62 a6be 4cb3 23bf 5bf2 3fbe
00000240: 04ff 4c3f 0237 2a3f 1d4a e13f 6a62 babe
00000250: 61bc 21be cc36 1ebe 3e5e 9c3f 9266 743e
00000260: 516c 473f 5dab 25c0 878a 983f 777f 7b40
00000270: 47e4 27c0 a4f0 923e 83f0 cb3f 5ab8 cdbf
00000280: 8686 a5bd 0d77 1cbf fb16 7b3e 2a69 523f
00000290: d570 af3f d493 87be 1f45 adbe 8aa9 c1bf
000002a0: c824 873f 4fb7 dc3f da65 47be fca8 403e
000002b0: 7418 1c3f 04dc 383e 138d 733e 223c 0bbb
000002c0: 857b ce3e 52bb e33e 6a98 38bf 2f1c 0e3f
000002d0: 9559 ae3e 9ad4 7cbf 6e14 b4be bd12 163f
000002e0: 33c8 98bf 4022 27c0 6156 86bf deb3 04bf
000002f0: 5322 a33d 3521 343f 1ee4 2abe 4676 853f
00000300: 658e b7bf 13e0 e83f 7973 11c0 4e60 503f
00000310: e9a9 6b3f 5c10 18c0 7121 3740 0680 82c0
00000320: 612d c2c0 3993 3340 92a0 eb3e 1655 cdbf
00000330: b6ac 4940 cc62 7340 a34d e63f 7658 bfbc
00000340: c90e c53f 3e8e df3f c2b2 83be 540b 853e
00000350: c9fa 01c0 a9ff 2ebf 4992 ddbf 4b03 62bf
00000360: ff4c dd3e b0ad d63f b0ea 84bf e8a6 13be
00000370: ddc2 2b3f 77a5 1bbf bc40 13c0 9b9a 70bf
00000380: ed50 cdbf 89e0 30bf 5cc6 22bf a075 7dbe
00000390: f58c 003f f475 1dc0 df11 2abf e680 fd3f
000003a0: d9bc 3dbf 0ce7 2640 84c4 a9bf b9c5 04bd
000003b0: 51bf 46c0 7948 72be 03d2 0f3d 40a3 35bf
000003c0: 5cfc b1bf 1bcb 64bf 8113 a6bf 9245 6d3f
000003d0: 769a dd3f f3da 01c0 dcf8 15bf 0081 c93f
000003e0: 38ef 173e b2a6 22c0 56e3 243f abb5 d43e
000003f0: 8639 393f 4f20 763f 4e42 fabe ab78 ab3d
2.9711254 -0.48458466 1.8848453 -0.29509097 -1.2605233 -0.98713356 -0.31557214 0.24844307
0.6538635 -1.6948953 -2.4544396 -1.8992014 -1.2996497 -1.6554867 -1.7369493 1.1275309
0.70731354 0.35937914 0.37338945 0.3547315 0.5482117 -2.0590973 -2.0685048 -1.3310202
-0.3912521 0.5986146 1.1693295 -0.49233204 0.8607981 0.27225557 -0.14468181 2.1101346
1.9995089 0.031417657 1.7557065 1.4712868 0.6016033 0.6863251 0.2585727 1.0267226
1.1300945 1.1930882 -0.6891678 0.017477145 -0.7354075 -6.319438 -4.1160665 -5.02698
-0.3843 0.69379026 -1.3252727 0.6863541 0.6247464 -0.25697872 0.7692205 1.3582423
1.2595797 1.4519049 2.194865 2.2174828 1.3150495 2.3530724 2.583156 -1.9056249
-1.1742179 -3.1063242 0.6394797 -1.4639448 0.1456463 0.033677597 -0.13699557 2.300075
-2.310018 -1.5490767 -0.88064426 -2.0418677 -0.89548755 -0.63251626 -2.0880237 -1.2146375
-1.336037 1.2925972 -0.031566884 -0.554076 -0.23904562 0.05099969 -0.15146337 -1.1430044
0.76453793 -0.9061362 -0.27779144 -0.0029107295 -0.16854762 -1.1345553 -0.8879359 -0.1925874
-0.820383 -0.233286 -0.05321536 -0.69109666 -0.57181627 -1.8246685 0.511548 0.664921
-0.3512176 0.57443553 0.08035426 -0.1300503 -0.416634 -0.5472388 -1.0558399 0.034354914
-0.6710087 -0.9934545 -0.62075865 -0.8279019 -0.0975961 0.2832422 0.29135144 -0.16445145
-0.1611536 0.3039922 0.10050157 1.0880129 1.6925775 0.01844803 1.3631674 0.25524598
0.37772435 0.6817837 -0.027302185 -0.024156898 1.2743016 0.49710733 0.69621617 1.9775923
1.5070292 -0.62501943 1.4243683 1.4107039 0.053592004 -0.32497308 -0.6394546 -0.18744795
0.8007662 0.66490185 1.7600743 -0.3640321 -0.15794517 -0.15450591 1.221626 0.23867252
0.7789965 -2.5885842 1.1917275 3.9296548 -2.623308 0.2869922 1.5932773 -1.6071885
-0.08082299 -0.6111916 0.24520485 0.8219172 1.3706309 -0.2647997 -0.33841798 -1.5129864
1.05581 1.7243441 -0.19472447 0.18814462 0.6097481 0.1805268 0.23784284 -0.0021245559
0.40328613 0.44478852 -0.72107565 0.55511755 0.3405272 -0.98761904 -0.35171837 0.5862234
-1.1936096 -2.6114655 -1.0495111 -0.51836956 0.07965531 0.7036317 -0.16688582 1.0426719
-1.434033 1.8193382 -2.272673 0.8139695 0.9205614 -2.3759985 2.861416 -4.078128
-6.0680394 2.8058608 0.46020943 -1.6041591 3.1511664 3.802905 1.7992443 -0.023357611
1.5395137 1.7465284 -0.2572232 0.25985205 -2.0309317 -0.68358856 -1.7310268 -0.88286275
0.43222806 1.6771755 -1.0384121 -0.14419138 0.6709421 -0.60799354 -2.300826 -0.9398591
-1.6040322 -0.69092613 -0.6358392 -0.24751902 0.50215083 -2.4603243 -0.6643352 1.9804962
-0.74116284 2.607852 -1.3263097 -0.032415126 -3.105427 -0.23660459 0.035112392 -0.70952225
-1.3905139 -0.89372414 -1.2974702 0.9268428 1.7312763 -2.0289886 -0.58582854 1.5742493
0.14837348 -2.5414243 0.6440939 0.41544852 0.723534 0.9614305 -0.4887871 0.08372625

hidden_layers.12.bias f4 [16]
00000000: 9db1 6fbd 5a47 033e e3f7 0a3e 6bd7 163e
00000010: 6ace 15bd 8317 a8bd d293 a63d a52b 613d
00000020: d020 5c3b 843b 3fbd a383 9cbd d007 943d
00000030: 0925 373e cf1f e0bb 6613 be3d 9b41 e5bc
-0.058518995 0.12820187 0.13571124 0.14730613 -0.036573805 -0.082076095 0.08133663 0.054973263
0.0033588894 -0.046687618 -0.07642295 0.072280526 0.17885222 -0.0068397294 0.09281044 -0.027985385

hidden_layers.13.weight f4 [16]
00000000: dfc3 0540 9952 c43f 6116 843f ad53 d23f
00000010: 570d f03f 73cb e63f a00f 693f 323f bc3f
00000020: 628b e93f 5c7d fa3f baa6 cd3f 9f62 1640
00000030: 1b2f b83f 0c2c 0140 3e06 f73f 1893 833f
2.09008 1.5337707 1.031933 1.6431786 1.8754071 1.8030838 0.91039467 1.4706786
1.8245661 1.9569507 1.6066506 2.3497694 1.4389375 2.0183134 1.929878 1.0279264

hidden_layers.13.bias f4 [16]
00000000: 71ee 873e 88f8 23be 318a 703f d2db e3bd
00000010: 6775 fbbf e698 973d 5910 2f40 db96 3840
00000020: 7caa b7bf 92a8 e1be b354 f9bd 9de3 45c0
00000030: 8c4d 2a3d 3b39 c9bf 5ef8 febc 7b9a 0f40
0.26549104 -0.16012776 0.93960863 -0.11125912 -1.9645203 0.0740221 2.7353728 2.8842075
-1.4348903 -0.4407392 -0.12174358 -3.0920174 0.04157786 -1.572059 -0.03112429 2.2438037

hidden_layers.13.running_mean f4 [16]
00000000: a4db fac1 4312 263f 9df2 88c1 0826 f040
00000010: 0093 8b40 13c5 b140 701b b040 71ca cf42
00000020: 4976 e5bf 6ae7 1941 429a 963e d0ee 3340
00000030: b91b 6e40 9d68 4440 14bb 36c2 2837 493d
-31.357246 0.64871615 -17.118464 7.5046425 4.3616943 5.555307 5.5033493 103.89539
-1.7926723 9.618998 0.29414564 2.811451 3.720442 3.068885 -45.682693 0.049124867

hidden_layers.13.running_var f4 [16]
00000000: e90e 3c44 5559 2143 39e2 af43 78b3 8e43
00000010: bde8 9943 e8d1 9043 7107 a643 46bd 1345
00000020: b165 5843 552e 5a43 e122 9043 e357 8342
00000030: 564c 6143 822f 5143 14b1 e144 bda9 d843
752.233 161.34895 351.76736 285.4021 307.81827 289.6399 332.05814 2363.8296
216.39723 218.18098 288.2725 65.67165 225.29819 209.18558 1805.5337 433.32608

hidden_layers.15.weight f4 [16, 16, 3, 3]
00000000: fa6c c03f f08e 4e3f 66cd 743e 769f bebf
00000010: c9be 29c0 b2a4 683f 9cdd cdbe 252d 193c
00000020: 3a0f 733f d192 0440 ee9f f2be c91f 82bf
00000030: 8b33 0f3e 8e56 a0bf 39d5 0d3f cf7d b1bf
00000040: 5bce 2e3f f536 acbf ec27 19bd c6df 0fbe
00000050: 6ad7 b23e 4362 9b3e e24b 11bf c66a 0e3f
00000060: 5433 abbe e007 48bf 09c9 1640 1aad e0bd
00000070: 6116 2ac0 49e7 cb3e d269 eb3f 3b68 993f
00000080: 9da8 ffbe 27e8 53bf 2847 c53f 4a1c a7be
00000090: 7056 cfbe fd2a cfbd c9b3 a73f e8ad ca3e
000000a0: fb94 12bf 7a6c 433b 637c 08bf 457a 093d
000000b0: 29fc ba3f 3f28 cdbf a38a 5b3f 768b a43f
000000c0: 7fa2 c3bf 4b46 f93d 53ac 9dbf d01f 963f
000000d0: 76f3 0740 7006 28c0 5475 8d3f eba2 8a40
000000e0: eb1f 0ec0 41f1 303e acc7 6a40 ebf1 c5bf
000000f0: 81e3 483e 767d 3440 ca17 35bf 2c89 873e
00000100: 6070 f53e cd66 bebf 0fce e33f aeb1 ba3f
00000110: 397f debf 72d3 30bf 1698 0cbf 6efc 3dc0
00000120: 1d76 98be 81a5 c7be 66c4 f73c f441 363f
00000130: ac08 183f 6cd9 443f ce64 fabf ba4a 0f3f
00000140: ecd7 03c0 f4b9 553f 7dcc b2be 9e22 89be
00000150: 3418 5fbd 2ba4 52bf 96f4 523e 1b5e 8dbc
00000160: 71bc 37ba b836 ef3f 8d12 cebf c0bf 14bd
00000170: 820f c73e 9a73 a4bf 245d a9bb fba5 a63f
00000180: 7c57 dabe dd19 843e 6535 9a3f fb2a 2340
00000190: 9d1a bbbf 0cb7 cb3e 021c 503f 188a 1fc0
000001a0: bcc8 c0bf 9d99 3f3f 19f8 16bf 4d52 9fbf
000001b0: d1fd c53f 92c1 873e 8072 de3e c08b 47be
000001c0: b944 80be 9229 363f d969 f63e 8eae c33d
000001d0: 680a c5be 6456 bebf eed6 c03e 5a67 423f
000001e0: a819 a4be b83f ccbe b03f b03f 7194 a5be
000001f0: 74ab 153f 1542 c53f 97a4 1640 c04b ce3e
00000200: b06e 803f c5fe 83be 691d 23c0 b7f3 523e
00000210: b0aa 3d3f cba2 d8bf 41de 993e 152c 33c0
00000220: 92dc 7bbf 1dc9 31be ffa9 c7bc 0e7c 3abf
00000230: 8466 a0be a5a0 7a3f 763a b9be 4867 e0be
00000240: 6fc3 0340 bf19 193f dca8 ae3f 6435 d83f
00000250: b563 813f d1a6 e13f 062f 6a3e 7781 89be
00000260: 8cf9 903f 2ea5 473e 2408 0a3f 7f3e 823f
00000270: 4877 b83f 1198 e23f 5b75 ae3f 368f 1a3f
00000280: 8842 04bf 5a0c 33bf 8b68 a33f 3216 ad3e
00000290: e5a2 2740 13a3 a63f 2e51 cdbe a88d c83f
000002a0: 2fa8 0440 2117 2fbf f034 2c3e 9c85 febf
000002b0: 5ee8 093e 8720 853d 3889 bdbf e0ed c1be
000002c0: c7d9 3cbf c829 83bf ae87 24be e2c4 d93e
000002d0: 4aa0 d4bf 7d2d 213b bc9f fdbf d842 19be
000002e0: a1ca 4b3f 6339 f8be 9a50 48c0 5042 1cc0
000002f0: e487 20c0 2995 d23f 1d24 1d3d 1d16 abbe
00000300: 8209 023f c8a7 833e 2f5d a3bd 40a1 783f
00000310: c5b7 fd3e 5a80 6ebe 4b3f 303f 3365 1ebf
00000320: 8b9c 3a3f 80a8 5bbe 5aa4 d7bf 276d 1abe
00000330: 9f00 b63f 03bf dabe 2dbf d83f f484 5fbe
00000340: 90e9 96bf 532f 06c0 22b5 e5bf 9b1f 45c0
00000350: 27ce 7ac0 215b f7bf 17d3 57c0 7419 6fc0
00000360: 9f15 843e e80c bd3e 0ed3 24c0 f1ab babf
00000370: 9098 b73e deaa 56bf 75db a3bf 1550 02bf
00000380: da8e e5bf df38 1fc0 3b97 2fbf 2583 5cbe
00000390: 2066 42be f25c 2e3f a680 a03f 06d4 7cbd
000003a0: 50fc f53e d285 273f 6d01 873f c62c 8f3f
000003b0: 5e54 6e3f 02d9 313f 6776 153e c22c c6be
000003c0: 5e4f ca3f cbfd 6c3f c15c 253e df92 6b3f
000003d0: 2969 1f3f d219 033f 0b65 81bd 64b5 24bf
000003e0: 87b2 7bbf f6ed 97bf 63d6 dbbf 0b91 cbbf
000003f0: 8256 603f b4da 1a3f 14fe e43f 0487 9f3f
1.5033257 0.80686855 0.23906478 -1.4892414 -2.6522696 0.90876305 -0.40208137 0.009349142
0.9494511 2.071461 -0.47387642 -1.016595 0.13984506 -1.2526414 0.55403477 -1.3866519
0.68283623 -1.3454272 -0.037391588 -0.14050207 0.34929973 0.30348405 -0.56756413 0.55631673
-0.33437598 -0.78137016 2.3560202 -0.109705165 -2.657616 0.39824894 1.8391669 1.1984934
-0.4993333 -0.8277611 1.541234 -0.3263877 -0.40495634 -0.10115621 1.3101741 0.39585805
-0.57258576 0.0029819296 -0.533148 0.03356387 1.4608203 -1.6027907 0.8575842 1.285506
-1.5283965 0.121716104 -1.2318214 1.1728458 2.1242347 -2.625393 1.1051431 4.3323874
-2.220698 0.17279531 3.668437 -1.5464453 0.19618036 2.8201575 -0.70739424 0.2647184
0.47937298 -1.4875122 1.7797259 1.4585474 -1.7382575 -0.6907264 -0.54919565 -2.968532
-0.29777613 -0.38993457 0.030245017 0.71194386 0.5938823 0.7689426 -1.9562013 0.559734
-2.0600538 0.83486867 -0.34921637 -0.26784223 -0.05446644 -0.8228175 0.20601115 -0.017256787
-0.0007008976 1.8688574 -1.6099411 -0.03631568 0.3887902 -1.2847779 -0.005168574 1.3019403
-0.4264487 0.25800982 1.2047545 2.5494983 -1.4617497 0.3978809 0.81292737 -2.4928036
-1.5061259 0.7484377 -0.58972317 -1.2446991 1.5468084 0.2651487 0.43446732 -0.19486904
-0.2505243 0.7115718 0.4812763 0.09554778 -0.38484502 -1.4870114 0.37663978 0.7593895
-0.32050824 -0.39892364 1.3769436 -0.32339814 0.5846474 1.5410792 2.3537958 0.40292168
1.0033779 -0.2578031 -2.54867 0.20600782 0.74088573 -1.692468 0.3005238 -2.7995656
-0.9838344 -0.17361875 -0.024373053 -0.7284554 -0.31328213 0.97901374 -0.36177415 -0.43828797
2.0588033 0.5980491 1.3645282 1.6891294 1.0108553 1.7629033 0.228695 -0.26856586
1.1326156 0.19496605 0.5391867 1.0175322 1.4411402 1.7702657 1.3629564 0.6037477
-0.5166402 -0.6994072 1.2766279 0.33805996 2.6193173 1.3018516 -0.40100998 1.566823
2.072765 -0.68394667 0.16817069 -1.9884524 0.13467547 0.06500345 -1.4807501 -0.37876797
-0.737698 -1.0247126 -0.16067383 0.42533022 -1.6611416 0.0024593764 -1.9814372 -0.14966905
0.7960606 -0.48481283 -3.1299195 -2.4415474 -2.508294 1.645177 0.03836452 -0.3341531
0.5079576 0.25713944 -0.07976758 0.9712105 0.49554268 -0.2329115 0.6884658 -0.6187317
0.72895116 -0.21450996 -1.6847031 -0.15080701 1.421894 -0.42723855 1.6933342 -0.21828061
-1.1790028 -2.0966384 -1.7945902 -3.080054 -3.9188325 -1.9324685 -3.372259 -3.7359285
0.25797746 0.3692391 -2.5753818 -1.4583722 0.35858583 -0.8385447 -1.2801348 -0.50903445
-1.793422 -2.4878461 -0.68590134 -0.21534403 -0.1898427 0.68110573 1.253926 -0.06172564
0.48044062 0.6543857 1.054731 1.1185539 0.93097484 0.6947175 0.14595948 -0.38706023
1.5805471 0.9257476 0.16148664 0.9202098 0.62269837 0.51211274 -0.063181005 -0.6433928
-0.98319286 -1.1869495 -1.7174801 -1.5903639 0.87632 0.60489964 1.7890038 1.2463078

hidden_layers.15.bias f4 [16]
00000000: dcea e63d b0be 82bd e510 773d 8834 ebbd
00000010: fe71 413d b7c7 40be 7367 5dbe 8996 d8bc
00000020: d066 68bd 656b 00ba a16f 213d fff5 e6bd
00000030: 4592 c0bd 5fc6 cebd 7a78 8b3e a230 113d
0.112752646 -0.06384027 0.060318846 -0.11484629 0.047227852 -0.18826185 -0.21621494 -0.026438968
-0.056738675 -0.00048988155 0.0394131 -0.11277389 -0.09402899 -0.1009643 0.27240354 0.03544677

hidden_layers.16.weight f4 [16]
00000000: 7eb3 963f dd3a 903f 10f8 3440 d90c 5b3f
00000010: 41a0 af3f 4425 ad3f 4dc2 2d3f 579b 083f
00000020: dd91 b83f 46dc d53f a952 b53f 3ac1 e43f
00000030: e797 773f 0269 573f d586 8d3f f1ef b53f
1.1773527 1.1267964 2.8276405 0.8556648 1.3720781 1.3526998 0.67874604 0.5336203
1.4419514 1.6707847 1.4165851 1.7871468 0.9671616 0.84144604 1.1056772 1.4213849

hidden_layers.16.bias f4 [16]
00000000: fb8d 55bf cc0c f23f 8e14 dcbf 48e1 0640
00000010: 1fa0 70bf 50ea 1ebd be48 bd40 fbb4 0a40
00000020: babf bfbf b5db 9abf ff56 2fbe fcca 81be
00000030: d07e 0b40 e11f 1a40 6856 c13f eaf0 31bf
-0.8341977 1.8910155 -1.7193773 2.1075 -0.93994325 -0.038797677 5.9151297 2.1672962
-1.4980385 -1.2098299 -0.1712303 -0.25350177 2.179615 2.4081957 1.5104494 -0.6950823

hidden_layers.16.running_mean f4 [16]
00000000: 8208 6d40 aab2 fbc1 e873 b8c1 2bb8 3ac2
00000010: 7d92 0642 db5b 9740 88a6 95c1 2a2e 8ebf
00000020: 09d8 87bf 015f 7dc2 9404 02c2 444f 88c1
00000030: 5be5 653f a254 2fc2 af1a 1b42 14aa 31c2
3.7036443 -31.462238 -23.056595 -46.67985 33.643055 4.729963 -18.706314 -1.1107838
-1.0612804 -63.342777 -32.50447 -17.038704 0.89803094 -43.83265 38.77606 -44.416092

hidden_layers.16.running_var f4 [16]
00000000: fc6b 1043 703f ec44 d676 dc43 32a9 9344
00000010: fc0f b343 83a5 bc44 e90f 7843 8764 1c44
00000020: 7852 a343 30ae 8d44 9742 bf43 4f7c 1244
00000030: 1476 ee44 82c9 e844 ddde 9844 3fd0 d543
144.42181 1889.9824 440.9284 1181.2874 358.12488 1509.1722 248.06215 625.57074
326.6443 1133.4434 382.52023 585.9423 1907.69 1862.2971 1222.9645 427.62692
